sign_language_model.onnx (onnx, 224442 bytes, 20 tensors)

fc1.weight f4 [256, 42]
-0.14017513 -0.07567217 0.09084142 -0.01803155 0.22297062 0.111490384 0.29704636 -0.06867157
0.1472883 -0.100748174 -0.25054634 0.020535726 -0.25790265 -0.04341391 -0.3122965 -0.08617241
-0.3555796 -0.21387337 -0.17033528 0.025462573 -0.013538256 0.086265296 0.27248904 -0.12589936
0.33365956 0.20194522 0.08273261 0.16580614 0.26315722 0.06565754 -0.0013999451 0.20270957
-0.009804545 0.33865398 0.043700807 -0.049403366 0.017211843 0.14912869 -0.1384083 -0.2819467
-0.050293967 -0.33712518 0.112754576 0.119103715 0.14423642 -0.1959323 0.063413635 -0.22924145
0.026041113 -0.16552977 -0.18528906 0.3901914 0.03214054 0.15138686 -0.028890217 -0.0005307568
-0.061133064 0.16467318 -0.27865916 0.40543565 -0.018831002 0.004610672 0.21647611 -0.11674405
0.37883782 -0.14074825 0.21695419 -0.4825498 -0.05286049 -0.09169967 -0.15341967 0.051330674
0.14282201 0.19971134 -0.10781959 0.031975765 -0.30671066 0.026704736 0.016541649 -0.037297394
0.048015833 0.069978714 -0.23743561 -0.11448113 0.009207817 -0.054025892 -0.15370464 0.027636765
-0.19052833 0.11173823 0.06990843 -0.14843929 0.08465981 0.055565447 0.07322016 0.2237548
0.078076735 -0.115903765 0.3440824 0.22886373 0.3541024 0.26077628 -0.10242347 -0.0272386
-0.31360558 -0.24269721 -0.3033575 -0.33042464 -0.48988727 -0.16650917 0.16051993 -0.059159644
0.13808641 -0.13849567 0.18394066 0.07241827 -0.07787283 0.17715688 0.3052971 0.13592067
0.067605846 0.06625661 -0.11829973 -0.13667355 -0.12225191 0.027032679 -0.1958491 -0.056965396
-0.1165555 -0.09070886 -0.22312352 0.02749998 0.08868484 0.16708815 0.7283004 -0.111985564
-0.23041435 -0.25676066 -0.2277163 -0.05084147 0.06651329 0.024006648 -0.11303006 0.33147323
0.0798153 -0.054754958 -0.03312934 0.13685945 0.12766954 -0.12897548 0.27324277 -0.2807786
0.13506734 -0.012116259 0.015120903 0.03718323 -0.0236455 0.084579505 -0.11921989 0.04977709
0.13208161 0.027562743 0.0051204516 0.20398095 -0.16878158 -0.017534822 -0.2750799 0.048074022
0.0076434785 -0.24599218 0.058068585 -0.11515562 0.31165475 -0.028592387 0.002909757 -0.23003198
-0.6140092 -0.12765953 0.31478092 0.33381352 0.07344948 0.0817151 -0.12195972 -0.1868687
0.16974947 -0.2541194 0.23522353 0.15106013 -0.055418037 0.19163476 0.08811424 0.22297482
0.04966074 0.1867554 -0.040706232 0.24957499 -0.1320388 -0.12809156 -0.028084803 0.04068655
-0.05335347 0.038767185 0.084860526 -0.035126448 -0.12632138 -0.07472627 -0.19474229 -0.23374514
0.046843152 -0.09376074 0.1418971 -0.25525016 0.09894719 -0.042648103 -0.26145524 0.16403575
-0.1478344 0.111094 0.12293545 -0.48077297 0.131683 0.20970866 0.29218888 0.11273875
0.32141048 -0.03756082 0.24126165 0.14082213 -0.04295299 0.12853506 0.0022163242 -0.118370615
-0.13505025 0.032331757 -0.40797383 0.07402197 -0.104993306 0.043224365 0.069065854 -0.07368899
-0.04902238 0.043125678 -0.119724415 -0.28840968 -0.12333036 -0.19183221 -0.13818924 -0.084814
0.111193046 0.3301408 -0.0052267304 0.22336204 -0.14788204 0.20070513 -0.20161535 0.11276132
00000000: 128a 0fbe 03fa 9abd 110b ba3d e7b6 93bc
00000010: 6952 643e 1255 e43d 7616 983e aea3 8cbd
00000020: bed2 163e 0f55 cebd 9c47 80be 8a3a a83c
00000030: d10b 84be c9d2 31bd 54e5 9fbe 297b b0bd
00000040: 880e b6be 9f01 5bbe 5f6c 2ebe e396 d03c
00000050: 90cf 5dbc dcab b03d af83 8b3e c3eb 00be
00000060: 6dd5 aa3e baca 4e3e b76f a93d 16c9 293e
00000070: 8bbc 863e 7677 863d 5d7e b7ba 1993 4f3e
00000080: 3ea3 20bc 0e64 ad3e 9eff 323d 2f5b 4abd
00000090: daff 8c3c 31b5 183e e8ba 0dbe 515b 90be
000000a0: 0c01 4ebd ac9b acbe dfeb e63d a6ec f33d
000000b0: b6b2 133e 7aa2 48be 02df 813d 45be 6abe
000000c0: 2c54 d53c a380 29be 6abc 3dbe 2bc7 c73e
000000d0: cda5 033d 2805 1b3e 2dab ecbc 7c22 0bba
000000e0: aa66 7abd 16a0 283e 6aac 8ebe 4395 cf3e
000000f0: 7943 9abc 1f15 973b eaab 5d3e 8117 efbd
00000100: 08f7 c13e 4f20 10be 3d29 5e3e c410 f7be
00000110: 3e84 58bd 09cd bbbd 0c1a 1dbe 1d40 523d
00000120: ef3f 123e 2181 4c3e 84d0 dcbd 05f9 023d
00000130: 2e09 9dbe e4c3 da3c 5a82 873c 27c5 18bd
00000140: 40ac 443d 0051 8f3d 5222 73be 1575 eabd
00000150: 62dc 163c 414a 5dbd c064 1dbe 7f66 e23c
00000160: dc19 43be 03d7 e43d 272c 8f3d 7800 18be
00000170: 1f62 ad3d 9898 633d 74f4 953d fa1f 653e
00000180: b2e6 9f3d f45e edbd 912b b03e 415b 6a3e
00000190: e94c b53e 7884 853e 65c3 d1bd 7c23 dfbc
000001a0: e990 a0be 9e85 78be ad51 9bbe 6b2d a9be
000001b0: 81d2 fabe 6181 2abe 565f 243e 6251 72bd
000001c0: 8666 0d3e cfd1 0dbe f15a 3c3e 0850 943d
000001d0: ca7b 9fbd 9d68 353e e74f 9c3e ca2e 0b3e
000001e0: ef74 8a3d 8cb1 873d 2147 f2bd 27f4 0bbe
000001f0: 365f fabd a373 dd3c ab8c 48be 8c54 69bd
00000200: a6b4 eebd 91c5 b9bd 7e7a 64be a347 e13c
00000210: 66a0 b53d 2819 2b3e e571 3a3f b058 e5bd
00000220: bdf1 6bbe 2276 83be 762e 69be 253f 50bd
00000230: 1f38 883d 97a9 c43c 4e7c e7bd dcb6 a93e
00000240: 3476 a33d bc46 60bd a1b2 07bd e224 0c3e
00000250: cebb 023e 2612 04be 7ae6 8b3e 36c2 8fbe
00000260: 184f 0a3e 4683 46bc aabd 773c 714d 183d
00000270: 35b4 c1bc 0538 ad3d 8f29 f4bd 10e3 4b3d
00000280: 6740 073e 43cb e13c 76c9 a73b 62e0 503e
00000290: 14d5 2cbe 30a5 8fbc 46d7 8cbe 44e9 443d
000002a0: 2576 fa3b 60e5 7bbe 53d9 6d3d b6d6 ebbd
000002b0: 3691 9f3e 953a eabc 9fb1 3e3b 818d 6bbe
000002c0: b52f 1dbf 2eb9 02be f72a a13e 9be9 aa3e
000002d0: ae6c 963d 3f5a a73d 05c6 f9bd 825a 3fbe
000002e0: ced2 2d3e f01b 82be 70de 703e 82af 1a3e
000002f0: 06fe 62bd e73b 443e 3d75 b43d 8353 643e
00000300: 0f69 4b3d cf3c 3f3e 94bb 26bd 9690 7f3e
00000310: 2e35 07be 6f2a 03be 1a12 e6bc f1a6 263d
00000320: 2b89 5abd 57ca 1e3d 5bcb ad3d c0e0 0fbd
00000330: 645a 01be 160a 99bd 866a 47be e35a 6fbe
00000340: 9bde 3f3d a105 c0bd 794d 113e 26b0 82be
00000350: d3a4 ca3d c7af 2ebd 76dd 85be fdf8 273e
00000360: e761 17be 4085 e33d 95c5 fb3d e027 f6be
00000370: e9d7 063e debd 563e c899 953e 93e3 e63d
00000380: ea8f a43e 60d9 19bd 4b0d 773e ad33 103e
00000390: 79ef 2fbd b29e 033e c03f 113b 4b6c f2bd
000003a0: 9d4a 0abe 4e6e 043d f2e1 d0be d598 973d
000003b0: bb06 d7bd 080c 313d 6672 8d3d 41ea 96bd
000003c0: b1cb 48bd 8da4 303d 1332 f5bd 6faa 93be
000003d0: a194 fcbd aa6f 44be 7b81 0dbe f6b2 adbd
000003e0: 2eb9 e33d 3708 a93e fe44 abbb 05b9 643e
000003f0: 646e 17be a585 4d3e 4174 4ebe 68ef e63d

fc1.bias f4 [256]
-0.10697196 -0.1013283 -0.01771721 -0.02744439 -0.09993713 -0.061342057 -0.0877534 -0.17060587
-0.21682921 -0.07659078 0.20026393 -0.377997 0.020423297 -0.26432812 0.17082417 0.040381268
-0.010058152 0.20373814 -0.04465083 0.21086763 -0.04653784 -0.039662816 0.018583825 0.045457065
-0.12162787 0.19604588 -0.19477187 -0.0051770112 -0.1780348 -0.16685063 -0.14147562 -0.10280624
-0.12658164 -0.0447308 0.027834477 -0.08765554 -0.03522782 -0.13748865 -0.06267519 -0.09440679
-0.28024536 -0.16926499 -0.15121551 -0.009049265 -0.0072130742 -0.1201975 0.060103796 -0.31222618
0.10120934 0.32091048 -0.15600988 -0.12141733 -0.2837541 0.06486618 -0.07990635 0.104848236
-0.0039524846 0.20710248 -0.14514418 -0.110437036 -0.14223246 0.05729092 -0.11187068 -0.1829119
-4.950874e-05 -0.24368168 0.011044645 -0.11789057 0.009278386 -0.13290413 -0.16365896 0.012725158
0.10371813 0.16351008 0.15246621 -0.15003636 -0.12815687 -0.08061263 -0.15514807 -0.24458523
-0.0052590193 -0.012970947 0.022052208 -0.0888813 -0.23280431 -0.12560868 0.045809995 -0.021055162
-0.24006763 0.041750845 0.07423656 -0.10227742 0.033091348 -0.24999216 -0.1459761 -0.17513777
-0.17134887 0.00038920413 -0.19991207 -0.103441976 -0.013084655 -0.044230234 -0.38736787 0.0067382627
-0.28901806 0.10631847 0.00014951537 0.084206805 -0.3085185 0.27324226 -0.12934473 -0.06138985
-0.058115885 -0.17371948 -0.24963397 0.03398213 0.057124987 -0.16051683 -0.0647019 0.037140947
-0.040503755 -0.05048755 -0.1548055 0.0032309273 0.08359684 -0.17655773 -0.31839883 -0.19160438
-0.05300035 0.07152331 -0.20115912 -0.03287522 0.03309396 0.2015146 -0.21965764 -0.26359335
-0.10268205 -0.220268 -0.105295524 -0.046099115 0.30132046 -0.050621677 -0.12852253 0.07130618
-0.31196326 -0.15130018 -0.07934336 -0.08171115 -0.040831573 -0.0066314377 -0.24021357 -0.3114083
-0.048421614 0.01858728 -0.44538736 -0.048492488 -0.0025889315 0.07676646 0.21923965 -0.02931579
0.046777435 -0.14652759 0.07001275 0.032987844 -0.08617196 -0.0004071941 0.004066552 -0.15906836
-0.16285563 -0.022386456 0.053181093 0.03661184 -0.008102116 -0.04270911 -0.3633104 -0.11217753
0.005760844 0.23214892 0.019153822 -0.103742145 0.076527186 -0.107619144 0.07064584 -0.036608923
-0.21202517 0.08838103 0.15618995 -0.23491186 -0.12132023 0.28078154 -0.094446465 0.15350352
0.24972612 -0.0786896 -0.0051357835 -0.087601736 -0.22245805 -0.24707492 0.06357934 -0.07892039
-0.19461262 -0.1505764 -0.32251012 0.18845989 0.04618417 0.036629006 -0.20804209 -0.15052365
-0.10581331 -0.04399263 -0.20145868 0.04343198 0.20817736 0.218783 -0.090782374 0.087065734
0.06431161 0.0553048 -0.2791582 -0.16058393 0.10045039 -0.13112994 -0.07574908 0.04831867
0.014737882 -0.035824664 0.14383055 -0.23580472 -0.07076712 0.07319854 -0.22409421 -0.23706913
-0.14594111 -0.06919016 0.024090344 -0.2002419 0.037345357 0.0719121 -0.21865639 -0.33893177
-0.008572503 -0.009452869 0.17111914 -0.016801795 -0.021647321 0.062934406 0.0040931306 0.040805712
-0.17486528 0.025770666 -0.14017005 -0.12344816 -0.08235391 -0.022202665 0.20931642 -0.13538143
00000000: 1d14 dbbd 3685 cfbd af23 91bc 0fd3 e0bc
00000010: d7ab ccbd cf41 7bbd 0eb8 b3bd 4eb3 2ebe
00000020: 7a08 5ebe a0db 9cbd fd11 4d3e d388 c1be
00000030: c24e a73c 0456 87be 88ec 2e3e d466 253d
00000040: f2ca 24bc bba0 503e cae3 36bd afed 573e
00000050: 769e 3ebd 7a75 22bd 1b3d 983c 3031 3a3d
00000060: 0818 f9bd 40c0 483e 4772 47be eba3 a9bb
00000070: c14e 36be e4da 2abe fcde 10be 148c d2bd
00000080: 9e9e 01be a537 37bd 2105 e43c bf84 b3bd
00000090: 0c4b 10bd d3c9 0cbe da5b 80bd 5958 c1bd
000000a0: 527c 8fbe cd53 2dbe 3dd8 1abe 5e43 14bc
000000b0: a75b ecbb 1b2a f6bd 662f 763d 1cdc 9fbe
000000c0: d846 cf3d 614e a43e 0ec1 1fbe a6a9 f8bd
000000d0: 3848 91be 8fd8 843d f1a5 a3bd acba d63d
000000e0: d883 81bb ac12 543e ada0 14be d02c e2bd
000000f0: 63a5 11be e2a9 6a3d 741c e5bd 424d 3bbe
00000100: 9ba7 4fb8 b187 79be 99f4 343c 9c70 f1bd
00000110: 5f04 183c 0518 08be 3796 27be 2e7d 503c
00000120: 2c6a d43d 306f 273e 1a20 1c3e 22a3 19be
00000130: 8e3b 03be 3c18 a5bd 23df 1ebe 8d74 7abe
00000140: da53 acbb 1884 54bc d5a6 b43c 6607 b6bd
00000150: 4164 6ebe 909f 00be 43a3 3b3d e07b acbc
00000160: 4ad4 75be ef02 2b3d 5609 983d d376 d1bd
00000170: cb8a 073d f2fd 7fbe c27a 15be 5157 33be
00000180: 1476 2fbe 180e cc39 c0b5 4cbe 63d9 d3bd
00000190: 0561 56bc c32a 35bd 1555 c6be a5cc dc3b
000001a0: 2dfa 93be 7fbd d93d 3ac7 1c39 9e74 ac3d
000001b0: 23f6 9dbe 69e6 8b3e f272 04be ec73 7bbd
000001c0: ec0a 6ebd 85e3 31be 0ca0 7fbe d930 0b3d
000001d0: e4fb 693d 865e 24be 6e82 84bd 1b21 183d
000001e0: 44e7 25bd 09cc 4ebd 5585 1ebe f7bd 533b
000001f0: d234 ab3d 8dcb 34be 2c05 a3be f033 44be
00000200: e516 59bd d07a 923d a8fc 4dbe 2ba8 06bd
00000210: 888d 073d d859 4e3e efed 60be b5f5 86be
00000220: f74a d2bd ef8d 61be 2ea5 d7bd 6dd2 3cbd
00000230: ad46 9a3e ad58 4fbd 699b 03be f908 923d
00000240: a6b9 9fbe 6fee 1abe c67e a2bd 2d58 a7bd
00000250: 023f 27bd 884c d9bb 8cfa 75be e970 9fbe
00000260: be55 46bd 5a44 983c d009 e4be 0fa0 46bd
00000270: 10ab 29bb bc37 9d3d 5c80 603e ab27 f0bc
00000280: b299 3f3d 540b 16be d862 8f3d 431e 073d
00000290: ed7a b0bd ab7c d5b9 b640 853b d1e2 22be
000002a0: a0c3 26be cd63 b7bc 6bd4 593d 4cf6 153d
000002b0: bdbe 04bc bfef 2ebd d203 babe 55bd e5bd
000002c0: 76c5 bc3b 72b8 6d3e 7ae8 9c3c c376 d4bd
000002d0: 49ba 9c3d 6d67 dcbd c4ae 903d 3df3 15bd
000002e0: 201d 59be 1d01 b53d 42f0 1f3e bc8c 70be
000002f0: be76 f8bd 99c2 8f3e 266d c1bd 0730 1d3e
00000300: 34b8 7f3e 0328 a1bd 134a a8bb 8a68 b3bd
00000310: 0bcc 63be 3501 7dbe e335 823d 03a1 a1bd
00000320: 8848 47be b330 1abe 0c20 a5be a1fb 403e
00000330: 9d2b 3d3d 4c08 163d fc08 55be df22 1abe
00000340: a6b4 d8bd 9e31 34bd 2f4b 4ebe bbe5 313d
00000350: 722c 553e a708 603e 1cec b9bd 854f b23d
00000360: ceb5 833d 4987 623d d3ed 8ebe 1d70 24be
00000370: efb8 cd3d ed46 06be 5522 9bbd cce9 453d
00000380: 2877 713c e2bc 12bd 5148 133e cb76 71be
00000390: 5aee 90bd 1ee9 953d f478 65be 40c2 72be
000003a0: 9671 15be 92b3 8dbd 1d59 c53c 360c 4dbe
000003b0: 72f7 183d a746 933d 76e7 5fbe 7788 adbe
000003c0: af73 0cbc 35e0 1abc db39 2f3e eba3 89bc
000003d0: b955 b1bc c1e3 803d ab1f 863b e423 273d
000003e0: e20f 33be 011d d33c bd88 0fbe 64d2 fcbd
000003f0: 2ba9 a8bd 5de2 b5bc 0b57 563e 6ea1 0abe

bn1.weight f4 [256]
1.0561322 0.9106445 1.354239 1.1521057 0.93636477 0.8868479 0.9003609 1.0729097
0.9135089 0.90860677 0.9788296 0.8942477 0.8677537 1.0104291 0.84263134 0.7728013
1.1026344 1.1188786 1.4187198 1.1890407 0.9512546 0.9151623 1.0898973 0.9453987
1.0325036 0.83125526 0.8327883 1.0503367 1.0380849 1.0090953 0.9004534 1.0678449
1.0395473 0.68585646 1.0880934 0.967129 0.7785674 1.1427655 1.1984357 0.91963905
0.7297458 0.89407337 1.0650928 1.0501944 0.78757876 0.8166543 1.0321816 0.9588561
1.0520161 1.0126709 0.9317868 1.0074111 1.0030727 0.9573794 0.9888869 0.9391359
1.051397 0.8693777 0.8181173 0.7474455 0.8912117 0.8958155 0.89442533 0.94383097
1.0423182 0.8544834 0.78881663 0.9279339 0.9896291 1.0833912 1.093292 1.0945609
1.0921321 0.8169228 0.80338174 1.0549272 0.97532684 0.9337933 0.9007582 1.0835353
1.0405288 1.0580543 0.92246795 1.0932212 0.7908983 0.9845086 0.7289846 0.93148404
1.1195287 1.2182243 0.702813 0.97352725 0.96338946 0.84849703 0.9265358 0.9287629
0.7910956 0.8609435 1.1104809 0.7175598 1.1968313 1.0644468 0.8917305 0.7984433
0.9532391 1.1389056 1.1278256 0.9162408 1.176428 1.0823622 0.8626591 1.0765717
0.837728 0.70353925 0.94215924 0.93670297 0.99631524 1.1576146 0.98808444 1.0319808
1.064341 1.1169022 1.2053529 1.0717916 1.0204839 0.85537523 0.84954554 0.9795192
1.0595478 1.0848033 0.8934183 0.9538744 0.9239587 0.9955978 0.9922383 0.8926832
0.95474035 1.0044968 0.80620235 0.95070744 0.96051466 1.0223973 1.1422389 1.0154533
0.888814 0.9409802 1.1543322 0.97736216 0.8650281 0.8782579 0.9586988 0.9541602
0.9875546 1.0194839 1.0143543 0.97465855 0.9486154 1.0533763 0.9509616 0.89620847
0.9441841 1.0687982 1.013643 0.9943954 0.9282955 0.96653825 0.8988199 1.0942706
1.0387062 0.7934352 1.004829 0.99457914 1.0332065 0.9753306 0.94406337 1.1355397
1.1097317 0.8154964 1.165386 0.97810155 1.0582662 0.95024747 0.7621055 1.0514884
0.96414465 0.9539503 0.82721734 0.9277325 0.91234016 0.95693177 1.1157858 1.0593208
0.8179771 1.0024202 0.94942826 0.84764653 0.8144347 1.0329701 0.7940021 0.9267499
0.654514 0.7071226 0.99514467 0.868277 0.7861045 0.75184375 1.1303885 0.8451826
1.0724689 1.07304 0.9566054 1.1013544 1.0043892 0.8520715 0.8866572 0.8289437
0.72230196 0.9472047 1.0254004 1.0160512 0.8264393 0.9307828 1.0489452 1.0035322
1.0006912 1.216154 0.909506 0.9155328 0.90927947 0.6942901 0.96692586 1.0484688
1.1926428 1.0053865 1.1000817 1.0041775 0.872361 0.76121444 0.86201614 0.770924
0.92887855 0.978626 0.8631245 0.75588715 0.87588686 0.80604416 0.78476936 0.97595745
1.1140351 0.92542905 0.87814337 0.91129166 1.1587563 1.0189035 1.042846 0.8177796
00000000: 572f 873f ff1f 693f b457 ad3f 3378 933f
00000010: 9ab5 6f3f 7708 633f 0d7e 663f 1b55 893f
00000020: b8db 693f 749a 683f 9494 7a3f 6bed 643f
00000030: 1b25 5e3f be55 813f b0b6 573f 4ed6 453f
00000040: 2023 8d3f 6a37 8f3f 9c98 b53f 7c32 983f
00000050: 6c85 733f 1448 6a3f c181 8b3f a605 723f
00000060: 1429 843f 25cd 543f 9d31 553f 6f71 863f
00000070: f7df 843f 092a 813f 1d84 663f 24af 883f
00000080: e30f 853f 4a94 2f3f a546 8b3f c495 773f
00000090: 3150 473f 2446 923f 5766 993f 776d 6b3f
000000a0: 9fd0 3a3f fee1 643f f654 883f c56c 863f
000000b0: c39e 493f 4210 513f 871e 843f 9877 753f
000000c0: 77a8 863f 339f 813f 9489 6e3f d9f2 803f
000000d0: b064 803f d116 753f b127 7d3f 366b 703f
000000e0: 2d94 863f 898f 5e3f 2370 513f 9758 3f3f
000000f0: 7326 643f 2a54 653f 0ff9 643f e89e 713f
00000100: af6a 853f 6dbf 5a3f e3ef 493f 138d 6d3f
00000110: 5558 7d3f 90ac 8a3f fef0 8b3f 921a 8c3f
00000120: fcca 8b3f da21 513f 6daa 4d3f db07 873f
00000130: 05af 793f 140d 6f3f 1798 663f 49b1 8a3f
00000140: 0c30 853f 536e 873f dc26 6c3f acee 8b3f
00000150: 5078 4a3f c108 7c3f bc9e 3a3f bd75 6e3f
00000160: b74c 8f3f c6ee 9b3f 8eeb 333f 1539 793f
00000170: b1a0 763f 1a37 593f 7331 6d3f 68c3 6d3f
00000180: 3e85 4a3f cb66 5c3f 3d24 8e3f 00b2 373f
00000190: c531 993f cb3f 883f 7348 643f c866 4c3f
000001a0: 7a07 743f a9c7 913f 975c 903f c28e 6a3f
000001b0: 3195 963f d88a 8a3f 3ad7 5c3f 1acd 893f
000001c0: 5875 563f 261b 343f 5931 713f c4cb 6f3f
000001d0: 840e 7f3f b72c 943f 1af3 7c3f f217 843f
000001e0: 533c 883f a7f6 8e3f 0149 9a3f 7830 893f
000001f0: 379f 823f dff9 5a3f d17b 593f c5c1 7a3f
00000200: 439f 873f d6da 8a3f 10b7 643f 1d31 743f
00000210: 8f88 6c3f 7fdf 7e3f 5403 7e3f e386 643f
00000220: dd69 743f 5a93 803f 4763 4e3f 9061 733f
00000230: 4ae4 753f eadd 823f e234 923f 60fa 813f
00000240: 5089 633f 14e4 703f 28c1 933f 6834 7a3f
00000250: 7b72 5d3f 82d5 603f 496d 753f d843 743f
00000260: 61d0 7c3f 737e 823f 5dd6 813f 3983 793f
00000270: 75d8 723f 09d5 863f 3872 733f eb6d 653f
00000280: 0db6 713f 61ce 883f 0ebf 813f b290 7e3f
00000290: c6a4 6d3f 0d6f 773f 1019 663f 0f11 8c3f
000002a0: 53f4 843f 921e 4b3f 3d9e 803f bd9c 7e3f
000002b0: 1c40 843f 44af 793f 23ae 713f 5d59 913f
000002c0: b00b 8e3f 5fc4 503f 5e2b 953f dd64 7a3f
000002d0: 4475 873f 6b43 733f 5919 433f 2c97 863f
000002e0: 2fd2 763f 1636 743f 84c4 533f e17f 6d3f
000002f0: 208f 693f 7bf9 743f 12d2 8e3f d397 873f
00000300: f266 513f 4e4f 803f bb0d 733f 5dff 583f
00000310: cb7e 503f 5d38 843f b943 4b3f 7b3f 6d3f
00000320: 3b8e 273f fd05 353f cdc1 7e3f 6747 5e3f
00000330: 253e 493f d578 403f 92b0 903f e35d 583f
00000340: a946 893f 6059 893f 17e4 743f 2ef9 8c3f
00000350: d38f 803f 5c21 5a3f f7fb 623f a835 543f
00000360: c8e8 383f 027c 723f 5240 833f f70d 823f
00000370: 8791 533f c847 6e3f d643 863f be73 803f
00000380: a616 803f efaa 9b3f 63d5 683f 5c60 6a3f
00000390: 8ac6 683f ffbc 313f 7488 773f 3a34 863f
000003a0: 85a8 983f 81b0 803f 7acf 8c3f e388 803f
000003b0: 0d53 5f3f f3de 423f 17ad 5c3f 465b 453f
000003c0: fcca 6d3f 3c87 7a3f baf5 5c3f d281 413f
000003d0: 1f3a 603f e958 4e3f a5e6 483f 59d8 793f
000003e0: b498 8e3f ebe8 6c3f 01ce 603f 694a 693f
000003f0: 2052 943f 6e6b 823f fa7b 853f 015a 513f

bn1.bias f4 [256]
-0.24357505 -0.11830636 -0.20125765 -0.34545043 -0.5523459 -0.07172411 -0.25080147 -0.2221394
-0.32659414 -0.23446622 -0.16910659 -0.12121553 -0.34152696 -0.5344572 -0.28950018 -0.06965154
-0.465075 -0.40506348 -0.15374172 -0.32724583 0.09317182 -0.5701233 -0.59802186 -0.025566692
-0.2544552 -0.4428521 -0.12155845 -0.54766273 -0.29749197 -0.47370902 -0.18945815 -0.45121875
-0.1350122 -0.56623703 -0.24767141 -0.41741514 -0.4872262 -0.51958364 -0.6058877 -0.22681148
-0.2941487 -0.25789127 -0.35573494 -0.28404218 -0.45381927 -0.030128242 -0.3032661 -0.30340645
-0.29563746 -0.33418447 -0.25606394 -0.35967666 -0.0067173587 -0.18442574 -0.1805138 -0.23705772
-0.17335199 -0.34092662 -0.22699964 -0.07434964 -0.80065084 -0.20899597 -0.33244735 -0.021590829
-0.17520203 -0.3150908 -0.56613183 -0.19013846 -0.119717315 -0.0972617 -0.53688514 -0.19220455
-0.28848794 0.11192049 -0.47752842 -0.3819904 -0.37917387 -0.15735865 -0.20634876 -0.4234518
-0.25444618 -0.47465926 -0.27229515 -0.23268697 -0.032209586 -0.13272789 -0.17714395 -0.46958494
-0.36938623 -0.2683593 -0.38570762 -0.28473225 -0.14478815 -0.19732778 -0.041955404 -0.4364457
-0.49299994 -0.25256112 -0.13483511 -0.6247012 -0.22069716 -0.67219824 -0.29774854 -0.046584632
-0.44020483 -0.3876249 -0.32294345 -0.19981222 -0.39501163 -0.07792066 -0.422693 -0.2998601
-0.4090886 -0.5494346 -0.21439135 -0.030593453 -0.330079 -0.4054733 -0.25762373 -0.33671376
-0.36661863 -0.35985416 -0.3204074 -0.31437674 0.02011667 -0.5845047 -0.21453902 -0.29212484
-0.20627408 -0.5463875 -0.30953526 -0.053250365 -0.087489955 -0.2538914 -0.06905172 -0.6463661
-0.53517395 -0.8206922 -0.062217627 -0.3768472 -0.32198888 -0.22493343 -0.2603249 -0.25269297
-0.4741023 -0.5159732 -0.183903 -0.09310475 0.028368266 -0.14323157 -0.51483977 -0.41890794
-0.13103695 -0.2712826 -0.20272695 -0.2520573 -0.14609614 -0.26763573 -0.20259883 -0.04367052
-0.043527767 -0.3182452 -0.317484 -0.16040222 -0.20022878 -0.049075846 -0.41351056 -0.3697574
-0.34516564 -0.6188058 -0.04319104 -0.16386892 -0.68886787 -0.33486515 -0.2492065 -0.22409472
-0.25791386 0.00981392 -0.18683153 -0.6282333 -0.33368635 -0.4666126 -0.22798589 -0.18929158
-0.37021556 -0.12847883 -0.21863478 -0.20084806 -0.2620452 -0.32822928 -0.4461116 -0.40604627
-0.09886788 -0.2454013 -0.14034267 -0.21073693 -0.1760705 -0.11416464 -0.19848052 -0.15817249
-0.48165533 -0.3535909 -0.4152582 -0.085504726 -0.4978893 -0.14481415 -0.38866657 -0.31515524
-0.043367926 -0.22114648 -0.5286918 -0.20447314 -0.11003419 -0.029935468 -0.39202985 -0.63167715
-0.45414266 -0.2861098 -0.43972906 -0.4193897 -0.49601707 -0.22958112 -0.36409792 -0.24701868
-0.19895439 -0.072527066 -0.055921443 0.12787537 -0.3087103 -0.19860652 -0.2880118 -0.3097537
-0.029897735 -0.41198918 -0.21955429 -0.44100794 -0.037146226 0.06539456 -0.44605035 -0.15580304
-0.19177903 -0.26720324 -0.48279878 -0.5892662 -0.4690574 -0.33664098 -0.4909571 -0.14997803
-0.16932766 -0.65818834 -0.18703908 -0.2560434 -0.0817817 -0.41128322 -0.11677983 -0.20470075
00000000: bd6b 79be 9b4a f2bd 7c16 4ebe e1de b0be
00000010: 8a66 0dbf 17e4 92bd 0d69 80be 8378 63be
00000020: 5937 a7be ea17 70be 472a 2dbe d93f f8bd
00000030: 9fdc aebe 30d2 08bf 5e39 94be 77a5 8ebd
00000040: 4f1e eebe 7b64 cfbe 786e 1dbe c48c a7be
00000050: ded0 be3d 9af3 11bf f617 19bf 3d71 d1bc
00000060: f447 82be 83bd e2be a3f3 f8bd a033 0cbf
00000070: de50 98be fd89 f2be 5101 42be 2506 e7be
00000080: a340 0abe e9f4 10bf 939d 7dbe 70b7 d5be
00000090: b675 f9be 6f03 05bf 751b 1bbf 4541 68be
000000a0: a99a 96be 530a 84be e422 b6be fa6d 91be
000000b0: 005b e8be 81cf f6bc b245 9bbe 1758 9bbe
000000c0: cb5d 97be 3a1a abbe d01a 83be 8a27 b8be
000000d0: 4a1d dcbb 1ada 3cbe 9cd8 38be 42bf 72be
000000e0: 2f83 31be ef8d aebe 9872 68be a044 98bd
000000f0: 74f7 4cbf 0a03 56be 8a36 aabe 40df b0bc
00000100: 2968 33be 9553 a1be 04ee 10bf a8b3 42be
00000110: 5a2e f5bd 2431 c7bd 4e71 09bf 45d1 44be
00000120: b1b4 93be 9236 e53d 9b7e f4be 3f94 c3be
00000130: 1423 c2be a022 21be 174d 53be adce d8be
00000140: c546 82be 8a06 f3be 456a 8bbe 7e45 6ebe
00000150: 33ee 03bd d2e9 07be 3965 35be 706d f0be
00000160: 3120 bdbe 6466 89be 787b c5be 6dc8 91be
00000170: 5843 14be 4b10 4abe 6ed9 2bbd d075 dfbe
00000180: 7d6a fcbe b14f 81be 3712 0abe 6bec 1fbf
00000190: 70fe 61be 2f15 2cbf 7f72 98be 87cf 3ebd
000001a0: 8762 e1be c576 c6be d858 a5be 939b 4cbe
000001b0: f73e cabe de94 9fbd 386b d8be 4387 99be
000001c0: 1074 d1be bfa7 0cbf 6889 5bbe 1f9f fabc
000001d0: 1d00 a9be 329a cfbe 42e7 83be bf65 acbe
000001e0: 70b5 bbbe ce3e b8be 700c a4be fdf5 a0be
000001f0: b7cb a43c 1aa2 15bf 1eb0 5bbe 6391 95be
00000200: 8339 53be 0de0 0bbf 687b 9ebe 0e1d 5abd
00000210: ef2d b3bd 0efe 81be fd6a 8dbd 4078 25bf
00000220: 2901 09bf e218 52bf e9d7 7ebd 1ef2 c0be
00000230: badb a4be f354 66be 4e49 85be f960 81be
00000240: 89bd f2be d216 04bf 1151 3cbe b4ad bebd
00000250: 9164 e83c 4cab 12be 8acc 03bf 1a7b d6be
00000260: 8d2e 06be 8ee5 8abe a797 4fbe a80d 81be
00000270: 3a9a 15be 8d07 89be 1176 4fbe dcdf 32bd
00000280: 2c4a 32bd 09f1 a2be 438d a2be 7b40 24be
00000290: c608 4dbe c103 49bd a8b7 d3be d850 bdbe
000002a0: 8db9 b0be 0f6a 1ebf 17e9 30bd 41cd 27be
000002b0: a559 30bf 7273 abbe fd2f 7fbe 1679 65be
000002c0: 490d 84be 90ca 203c c450 3fbe e6d3 20bf
000002d0: f0d8 aabe d9e7 eebe 2275 69be a7d5 41be
000002e0: e58c bdbe f48f 03be cce1 5fbe 1dab 4dbe
000002f0: ca2a 86be ab0d a8be bd68 e4be 4ce5 cfbe
00000300: 3e7b cabd 7a4a 7bbe fdb5 0fbe 6ccb 57be
00000310: d34b 34be 27cf e9bd 7a3e 4bbe f8f7 21be
00000320: 879b f6be de09 b5be b99c d4be 1a1d afbd
00000330: 59eb febe 294a 14be 4eff c6be 075c a1be
00000340: 91a2 31bd 3974 62be 5958 07bf 6861 51be
00000350: 9b59 e1bd 3a3b f5bc 23b8 c8be 98b5 21bf
00000360: 6385 e8be fc7c 92be 2b24 e1be 3fba d6be
00000370: f3f5 fdbe 5017 6bbe 0b6b babe 77f2 7cbe
00000380: b3ba 4bbe 1289 94bd e20d 65bd c3f1 023e
00000390: 470f 9ebe 825f 4bbe 4876 93be 0998 9ebe
000003a0: 18ec f4bc 3ff0 d2be d7d2 60be cbcb e1be
000003b0: a426 18bd 95ed 853d b660 e4be d58a 1fbe
000003c0: b961 44be ddce 88be 6731 f7be 26da 16bf
000003d0: 4b28 f0be 355c acbe bb5e fbbe d793 19be
000003e0: 3b64 2dbe 087f 28bf 2c87 3fbe 1f18 83be
000003f0: 2a7d a7bd b793 d2be 432a efbd 139d 51be

bn1.running_mean f4 [256]
-0.08643935 -0.10802296 -0.031276524 -0.07373573 -0.21656436 -0.07991074 -0.1867204 -0.25630197
-0.29241413 -0.26127464 0.05293535 -0.4050048 0.09713442 -0.19161773 0.13662353 -0.014044362
-0.19542034 0.15775698 -0.056454573 0.04499911 -0.10325477 0.27581987 -0.051121768 0.04259171
-0.30591026 -0.014166609 -0.24791598 -0.18172519 -0.23968618 -0.33190256 -0.08500843 -0.1379263
-0.1440059 1.4940392 -0.028792774 -0.097632416 0.15192235 -0.23011377 0.29963577 -0.24700195
-0.32907495 -0.27366242 -0.24604082 -0.07402123 0.24146344 -0.12911095 0.14386177 -0.3126026
0.044210408 0.29135478 -0.29339343 -0.17911315 -0.30244586 -0.049756624 -0.122750565 -0.030890442
-0.044894814 0.17271708 -0.26351434 -0.25039515 -0.17505665 0.068980284 -0.20373565 -0.2128377
-0.114245825 -0.8953403 1.7893754 -0.22747676 0.017597625 -0.1782797 -0.22298671 0.022540929
0.08482134 0.3873133 -0.86179775 -0.053626962 -0.14551258 -0.24604258 -0.40708888 -0.40677005
-0.10425422 -0.10411795 -0.12407024 -0.096621245 -0.23766474 -0.16301687 0.009612476 -0.10331319
-0.43432087 0.11251351 0.63665533 -0.041592367 -0.009338847 -0.42817348 -0.24613662 -0.4198811
-0.70664656 0.1507405 -0.27458623 0.8020258 -0.08184247 -0.14648244 -0.6809535 0.0011772795
-0.18212536 0.12935783 -0.011919886 -0.13159895 -0.3235504 0.16029641 -0.15395445 -0.14359456
-0.13643973 0.29084805 -0.2932755 -0.041477613 -0.05629407 -0.18562809 0.06495632 -0.026016628
-0.12850015 -0.16379946 -0.20089456 -0.05193415 0.054258842 -0.2695548 -0.36048788 -0.29503536
-0.15696625 0.0018703563 -0.20721915 0.013006575 -0.055019826 0.010263986 -0.24500522 -0.116889976
-0.16097172 -0.103373975 -0.1965465 -0.028332423 0.37756452 -0.114265546 -0.17857388 -0.02858057
-0.44904473 -0.46169975 -0.00638529 -0.24868454 -0.09890301 -0.055995222 -0.3106022 -0.3508032
-0.082111694 -0.12928252 -0.48554093 -0.06836304 -0.11419401 0.01451888 0.15296394 -0.05782742
0.039939653 -0.2615604 0.04038185 0.023284825 -0.29099596 -0.015159519 -0.13077013 -0.22426629
-0.3035872 0.82806695 0.15597714 0.02385981 0.2603935 -0.13429162 -0.5911178 -0.099800676
-0.030766685 0.06637224 0.0075348085 -0.05425502 0.046208493 -0.23668757 -3.4477795e-05 -0.0471026
-0.25663695 0.18038948 0.1970893 -0.41608748 -0.20615798 0.16107515 -0.09858142 -0.016254101
0.08459196 -0.10223715 -0.028620766 -0.044276748 -0.41343543 -0.31434447 -0.14576316 -0.013189985
-0.36268902 0.051803797 -0.46287626 0.2932635 -0.000979864 0.122284725 -0.3083148 -0.024376107
-0.12051082 -0.12720855 -0.17413962 0.047466256 0.1074868 0.27903724 -0.014943196 -0.52357554
0.63610804 0.016789958 -0.45456928 -0.24055433 -1.3207196 -0.1898003 -0.021848164 0.0060074124
-0.07207717 -0.017932935 0.1873316 -0.3032931 -0.21986091 0.309774 -0.19042867 -0.3294495
-0.16752355 -0.23114245 -0.019880518 -0.257622 0.067831025 0.0048877606 -0.18972366 -0.42364267
-0.010810967 -0.24541007 0.7974948 -0.6022742 -0.4107925 0.21298875 -0.19546951 -0.027238626
-0.25705272 1.0946252 -0.25819093 -0.08208991 -0.07128556 -0.10854813 0.21879876 -0.23107572
00000000: 1d07 b1bd 243b ddbd d01b 00bd c202 97bd
00000010: 0cc3 5dbe 3ea8 a3bd a233 3fbe 033a 83be
00000020: 4eb7 95be cac5 85be bdd2 583d ca5c cfbe
00000030: 69ee c63d 7037 44be 0ae7 0b3e 531a 66bc
00000040: 451c 48be 0c8b 213e e93c 67bd fd50 383d
00000050: 3d77 d3bd 4338 8d3e 0f65 51bd a574 2e3d
00000060: 45a0 9cbe 111b 68bc b0dd 7dbe 2b16 3abe
00000070: 4b70 75be 22ef a9be e618 aebd 8d3c 0dbe
00000080: 4876 13be ad3c bf3f d3de ebbc 81f3 c7bd
00000090: 8891 1b3e f2a2 6bbe dc69 993e 14ee 7cbe
000000a0: 837c a8be 7b1d 8cbe 20f2 7bbe 7198 97bd
000000b0: 3142 773e a935 04be 8050 133e 730d a0be
000000c0: f915 353d 742c 953e aa37 96be 7069 37be
000000d0: 2fda 9abe 9acd 4bbd a664 fbbd f40d fdbc
000000e0: a0e3 37bd bfdc 303e 5aeb 86be cb33 80be
000000f0: 0d42 33be 8945 8d3d 14a0 50be 20f2 59be
00000100: b7f9 e9bd 0635 65bf 410a e53f abef 68be
00000110: e528 903c f48e 36be a156 64be c1a7 b83c
00000120: d0b6 ad3d ee4d c63e c79e 5cbf f2a7 5bbd
00000130: 4001 15be 96f2 7bbe f46d d0be 2a44 d0be
00000140: 3d83 d5bd cb3b d5bd 8a18 febd 5ce1 c5bd
00000150: 635e 73be e5ed 26be a67d 1d3c de95 d3bd
00000160: 4e5f debe 7c6d e63d d8fb 223f c25c 2abd
00000170: f701 19bc 8e39 dbbe 3d0b 7cbe a8fa d6be
00000180: cae6 34bf b85b 1a3e 9196 8cbe 9051 4d3f
00000190: 069d a7bd 7eff 15be f852 2ebf f24e 9a3a
000001a0: 127f 3abe 6176 043e a04b 43bc e0c1 06be
000001b0: 66a8 a5be be24 243e 3ca6 1dbe 740a 13be
000001c0: dbb6 0bbe 09ea 943e 3528 96be 6ee4 29bd
000001d0: 9c94 66bd 4a15 3ebe d207 853d d320 d5bc
000001e0: 8b95 03be 0cbb 27be 4eb7 4dbe e7b8 54bd
000001f0: 853e 5e3d 1603 8abe de91 b8be e00e 97be
00000200: c3bb 20be be26 f53a 4231 54be 8819 553c
00000210: 785c 61bd 472a 283c a6e2 7abe 0364 efbd
00000220: c5d5 24be bcb5 d3bd 7c43 49be 6619 e8bc
00000230: 2350 c13e 0e04 eabd 12dc 36be cd21 eabc
00000240: 31e9 e5be e963 ecbe b23b d1bb 29a7 7ebe
00000250: a98d cabd 3f5b 65bd 4007 9fbe 7a9c b3be
00000260: 2d2a a8bd a362 04be d298 f8be ec01 8cbd
00000270: 8dde e9bd 99e0 6d3c 94a2 1c3e 72dc 6cbd
00000280: c397 233d 3feb 85be 7067 253d d1bf be3c
00000290: 6cfd 94be a25f 78bc 9be8 05be 10a6 65be
000002a0: c86f 9bbe 32fc 533f 79b8 1f3e a675 c33c
000002b0: 4c52 853e be83 09be 7f53 17bf 4c64 ccbd
000002c0: 6a0a fcbc 2bee 873d 8ee6 f63b 833a 5ebd
000002d0: 1e45 3d3d 3a5e 72be 409c 10b8 a8ee 40bd
000002e0: eb65 83be 05b8 383e c7d1 493e 6b09 d5be
000002f0: 141b 53be e2f0 243e 0ee5 c9bd 5227 85bc
00000300: 8d3e ad3d b661 d1bd 1976 eabc 895b 35bd
00000310: cfad d3be c2f1 a0be f042 15be cf1a 58bc
00000320: 60b2 b9be 3830 543d 1efe ecbe a226 963e
00000330: c86e 80ba 6a70 fa3d 70db 9dbe 67b0 c7bc
00000340: 60ce f6bd f542 02be a851 32be fa6b 423d
00000350: 0a22 dc3d f8dd 8e3e 4fd4 74bc 0c09 06bf
00000360: fad7 223f 188b 893c 4ebd e8be e053 76be
00000370: 570d a9bf 035b 42be ecfa b2bc d4d9 c43b
00000380: 329d 93bd 17e8 92bc dbd3 3f3e 3c49 9bbe
00000390: 3823 61be b39a 9e3e bcff 42be 9bad a8be
000003a0: 4b8b 2bbe 9bb0 6cbe 78dc a2bc 08e7 83be
000003b0: feea 8a3d 8229 a03b eb46 42be b1e7 d8be
000003c0: 7b20 31bc c74c 7bbe 9f28 4c3f a42e 1abf
000003d0: 6553 d2be b919 5a3e 2929 48be 8a23 dfbc
000003e0: 6a9c 83be ae1c 8c3f 9a31 84be c11e a8bd
000003f0: 2afe 91bd 7b4e debd c80c 603e 1d9f 6cbe

bn1.running_var f4 [256]
0.016585644 0.0087971315 0.011352641 0.013257746 0.011267323 0.009857008 0.020400807 0.012910698
0.036813974 0.009741045 0.017288048 0.0068023023 0.03765775 0.009702247 0.015890617 0.0060090786
0.023873324 0.014153869 0.014305046 0.022045739 0.018532041 0.017003307 0.0072390786 0.004999899
0.054965075 0.02379914 0.02321941 0.020893987 0.010880988 0.01342796 0.033012107 0.007321256
0.0119386 0.12173308 0.008715289 0.01476131 0.02302936 0.0060869684 0.0117867915 0.0108386455
0.010068715 0.01132697 0.007897801 0.017904859 0.042008396 0.02296116 0.029633969 0.008185877
0.018402696 0.005247733 0.019748889 0.008940437 0.0088054985 0.0227269 0.008012687 0.01875394
0.0065514557 0.016249055 0.009283741 0.014182357 0.013394971 0.007886737 0.0127537465 0.009463954
0.022454666 0.042970043 0.17652407 0.017814968 0.009854066 0.010340916 0.012524873 0.019246604
0.011110954 0.015633259 0.12515566 0.021536862 0.0067713335 0.030230071 0.036156878 0.020745534
0.010108503 0.010283352 0.019793002 0.0020623233 0.04677226 0.013099788 0.009473547 0.018299643
0.015281394 0.006291443 0.060152832 0.013449773 0.006871681 0.012199289 0.00948712 0.03865048
0.041388653 0.017454162 0.010010802 0.09805012 0.011291941 0.018132094 0.023825342 0.039820347
0.019268507 0.014099679 0.00833637 0.019822065 0.007981442 0.019645745 0.035597343 0.023595812
0.021124773 0.073425755 0.020127237 0.033639017 0.017681204 0.018787015 0.028451703 0.013566849
0.008830544 0.022383511 0.010652637 0.009701731 0.029857324 0.034222268 0.0063087507 0.013281971
0.02240978 0.008791497 0.024658918 0.025346281 0.03162014 0.012045978 0.006926896 0.009528057
0.013775623 0.022091761 0.03726354 0.004553147 0.012498828 0.021094665 0.016270487 0.010103174
0.011023664 0.035086147 0.0161009 0.038157746 0.014529612 0.009648256 0.013645766 0.023813382
0.007463689 0.00788124 0.0052014724 0.0138607435 0.026055975 0.01604005 0.027932527 0.009695778
0.021554714 0.009320547 0.01128461 0.009896704 0.015157172 0.025880182 0.011999653 0.012722971
0.015240603 0.06687168 0.018137574 0.028302856 0.012939854 0.009717427 0.029286668 0.025210211
0.018073559 0.016300978 0.011379064 0.018147716 0.0067253336 0.009741195 0.013609394 0.022625579
0.012195207 0.017454239 0.007894643 0.03602297 0.016030028 0.014196046 0.017812656 0.014345506
0.01925525 0.021046486 0.008773321 0.022524457 0.034093045 0.018382456 0.022661231 0.022462502
0.009221701 0.014196056 0.01327742 0.037958432 0.043784663 0.012438151 0.011228603 0.05428622
0.007782332 0.0059099193 0.014820393 0.009281175 0.008798817 0.020648446 0.0071593495 0.051336866
0.043249346 0.024184136 0.01587927 0.0093046455 0.13471098 0.009317761 0.017964141 0.019023806
0.0066142376 0.011732067 0.021284662 0.008025182 0.024435287 0.014437553 0.0304206 0.01113785
0.01239851 0.014623179 0.008022553 0.013862141 0.015632091 0.016077025 0.0031767366 0.022974245
0.005686427 0.035712246 0.05070594 0.064351626 0.04906683 0.017271271 0.05181478 0.044000488
0.023314008 0.093835436 0.012857672 0.011334638 0.017106675 0.011390528 0.0071846955 0.029772041
00000000: 9ede 873c d821 103c 6d00 3a3c 0437 593c
00000010: 949a 383c 4a7f 213c 981f a73c 6487 533c
00000020: 40ca 163d e798 1f3c aa9f 8d3c d9e5 de3b
00000030: 033f 1a3d 2cf6 1e3c 0a2d 823c cee7 c43b
00000040: fd91 c33c a1e5 673c b65f 6a3c 4499 b43c
00000050: 82d0 973c 854a 8b3c cb35 ed3b 31d6 a33b
00000060: 0f23 613d 6af6 c23c a236 be3c de29 ab3c
00000070: 2c46 323c f200 5c3c b437 073d 26e7 ef3b
00000080: 1e9a 433c 314f f93d 92ca 0e3c 6cd9 713c
00000090: 12a8 bc3c 3175 c73b 631d 413c 9394 313c
000000a0: 40f7 243c c194 393c c765 013c 36ad 923c
000000b0: ff10 2c3d 0b19 bc3c f0c2 f23c 0f1e 063c
000000c0: 40c1 963c 2df5 ab3b 6cc8 a13c e97a 123c
000000d0: f044 103c c42d ba3c a547 033c dda1 993c
000000e0: 98ad d63b bd1c 853c d51a 183c 1e5d 683c
000000f0: 9576 5b3c 5f37 013c 17f5 503c b30e 1b3c
00000100: d9f2 b73c 5b01 303d bac2 343e b2f0 913c
00000110: f372 213c f26c 293c 2035 4d3c 0eab 9d3c
00000120: b80a 363c 5211 803c ce28 003e 136e b03c
00000130: 10e2 dd3b 0ea5 f73c 3c19 143d 8af2 a93c
00000140: 229e 253c 817b 283c ef24 a23c 0b28 073b
00000150: 4594 3f3d 7ea0 563c f036 1b3c 22e9 953c
00000160: d05e 7a3c 7328 ce3b d162 763d 705c 5c3c
00000170: d72b e13b 87df 473c de6f 1b3c f74f 1e3d
00000180: 2687 293d 08fc 8e3c 5904 243c 80ce c83d
00000190: d501 393c c289 943c 5d2d c33c a91a 233d
000001a0: fdd8 9d3c 5702 673c 4595 083c e261 a23c
000001b0: 98c4 023c 1df0 a03c 85ce 113d 014c c13c
000001c0: dc0d ad3c 3e60 963d e0e1 a43c 11c9 093d
000001d0: 2cd8 903c 3ae7 993c 8c13 e93c 7d47 5e3c
000001e0: fcad 103c a05d b73c 6688 2e3c 02f4 1e3c
000001f0: 5997 f43c a62c 0c3d a3b9 ce3b a09c 593c
00000200: b794 b73c 360a 103c 8001 ca3c 01a3 cf3c
00000210: 1f84 013d 7e5c 453c 04fb e23b 911b 1c3c
00000220: 27b3 613c c8f9 b43c a7a1 183d 9132 953b
00000230: e2c7 4c3c b8ce ac3c af49 853c c887 253c
00000240: 999c 343c 7eb6 0f3d 09e6 833c 4c4b 1c3d
00000250: 9c0d 6e3c b813 1e3c 7e92 5f3c 4814 c33c
00000260: f691 f43b 5120 013c 1d71 aa3b 2c18 633c
00000270: 5773 d53c 6c66 833c c1d2 e43c 0adb 1e3c
00000280: 8393 b03c 35b5 183c 16e3 383c c925 223c
00000290: ca55 783c ad02 d43c 319a 443c 0274 503c
000002a0: b9b3 793c 05f4 883d 4095 943c 64db e73c
000002b0: ae01 543c d835 1f3c 98ea ef3c a585 ce3c
000002c0: 000f 943c a189 853c 416f 3a3c 85aa 943c
000002d0: 3060 dc3b 8899 1f3c f0f9 5e3c 4759 b93c
000002e0: 68ce 473c 31fc 8e3c 8858 013c d28c 133d
000002f0: 6851 833c 8896 683c d9eb 913c 6a09 6b3c
00000300: 30bd 9d3c ae69 ac3c fabd 0f3c 3685 b83c
00000310: 26a5 0b3d ce96 963c 0ca4 b93c 4803 b83c
00000320: 9e16 173c 9396 683c 8989 593c 4d7a 1b3d
00000330: 8c57 333d 63c9 4b3c 2df8 373c 3a5b 5e3d
00000340: ef02 ff3b ffa7 c13b 3cd1 723c 1210 183c
00000350: ea28 103c ee26 a93c fa98 ea3b 9b46 523d
00000360: 3a26 313d cf1d c63c 3e15 823c 8372 183c
00000370: adf1 093e 86a9 183c 8929 933c d0d7 9b3c
00000380: 3fbc d83b db37 403c 2c5d ae3c 0e7c 033c
00000390: 832c c83c 7c8b 6c3c 9f34 f93c 877b 363c
000003a0: 1f23 4b3c 0f96 6f3c 0771 033c 091e 633c
000003b0: df0e 803c f7b3 833c cc30 503b 7c34 bc3c
000003c0: 3555 ba3b 0147 123d 08b1 4f3d c9ca 833d
000003d0: 4dfa 483d 7b7c 8d3c bc3b 543d db39 343d
000003e0: 05fd be3c cb2c c03d fca8 523c ebb4 393c
000003f0: 4c23 8c3c 569f 3a3c 986d eb3b 7fe4 f33c

fc2.weight f4 [128, 256]
0.20520733 -0.016807355 -0.006975759 0.007058474 -0.29798368 0.20292236 0.017330263 -0.13665268
0.10034422 -0.2775529 -0.04960675 0.085137375 0.34983823 -0.008039549 0.07443768 0.096008755
0.28176886 0.0790267 -0.06477307 -0.03426899 0.14058094 -0.013637899 0.0813246 -0.18906032
-0.06526193 0.01175173 -0.24961711 0.09450967 0.13838668 -0.08427481 0.019888613 -0.26591086
0.007620828 0.1341366 0.08255091 0.31579164 -0.081904836 0.045127884 -0.4072469 0.14407241
-0.18876044 0.03684958 -0.025584882 -0.021713326 -0.035870384 -0.19121368 -0.46249858 -0.17450665
-0.33895302 -0.16637476 0.043920916 0.056078564 -0.35518426 0.16411556 -0.046035044 0.14589442
0.050608493 -0.010640838 0.16567543 -0.2514794 -0.13221876 0.03887976 -0.10355766 -0.34888133
0.2184315 -0.15667531 -0.013306357 0.2388857 -0.2793905 0.20956808 0.012432595 0.029306531
0.10343616 0.0033903096 0.0018931647 -0.28944966 0.15165979 -0.017902441 0.01319905 0.13877566
-0.46396458 -0.14408809 -0.19254173 -0.14343205 0.10239665 0.21044055 0.20690656 0.003511845
-0.24677841 -0.23885661 -0.10253015 -0.21577443 -0.13649127 0.10039577 -0.032607347 0.040814288
-0.27918977 -0.13321032 0.055210218 0.20852502 -0.12136093 0.12257473 -0.2884429 -0.1935605
0.20314774 -0.11953755 0.0401537 0.008484129 -0.3255495 0.21652478 -0.09510514 -0.04711034
-0.124060065 -0.06202074 -0.1310131 0.10534833 -0.23561017 -0.1098566 -0.035180945 0.110379785
0.20013888 -0.021689694 -0.3429892 0.112386584 0.1001571 -0.38364747 -0.25664875 0.14954492
0.26906005 0.011916479 -0.1690836 -0.33229154 -0.2128877 -0.16376567 0.04895092 0.13936277
-0.061643045 -0.21360394 -0.09726737 -0.107473396 0.12063817 0.1538315 0.15429933 -0.021601027
0.33834013 0.10384224 -0.0049443226 0.10829366 -0.13186279 -0.18438919 0.06990207 -0.018766297
-0.28507268 0.08742441 0.1460453 -0.060139947 -0.13357271 0.25938186 -0.032498986 0.027478116
-0.047415834 -0.2054467 0.10756947 0.055792164 -0.17712031 -0.068972655 0.24250785 0.122323
-0.15559493 -0.12340473 0.02043792 -0.15059389 -0.05152099 -0.07088625 -0.1286419 0.07882446
-0.14251041 -0.31093025 0.20243973 0.29593462 0.2618959 -0.26361725 -0.13643754 -0.3222743
0.31468037 -0.13726777 -0.5008212 0.15755479 -0.14247648 -0.3404024 0.3085198 0.0072353417
0.042137466 0.07291381 -0.08726714 -0.19329941 -0.04209921 0.15107991 -0.0541708 -0.10741695
0.10067357 -0.06991051 -0.16135979 -0.18954116 0.20470525 0.13458508 0.30366632 0.005753078
0.17652158 0.2510154 0.15663329 -0.20459001 0.07445573 -0.21036783 0.24894585 0.12242002
-0.094125755 0.12684524 0.18243362 0.09062353 0.09716622 0.08748706 -0.34471524 -0.09126633
-0.17117476 0.07573147 -0.0898107 0.049890436 -0.049027674 -0.019144315 -0.0071222144 -0.3732985
-0.13461077 0.2683841 -0.033992074 0.16416588 0.15514131 -0.14440571 -0.27756733 0.18986571
0.008298262 -0.13699166 -0.40146074 -0.20448563 -0.34775144 -0.008317335 -0.25128895 -0.14390743
-0.15990503 0.01961422 0.020664835 0.21507736 0.0026395093 0.13831554 -0.10457032 0.12369295
00000000: df21 523e 94af 89bc e894 e4bb c54a e73b
00000010: 5191 98be e1ca 4f3e 32f8 8d3c aeee 0bbe
00000020: 4581 cd3d 6a1b 8ebe 7330 4bbd 815c ae3d
00000030: ff1d b33e 50b8 03bc c872 983d 3da0 c43d
00000040: 0244 903e c0d8 a13d bea7 84bd a45d 0cbd
00000050: 73f4 0f3e 7f71 5fbc 838d a63d 0799 41be
00000060: 0ca8 85bd 548a 403c a19b 7fbe 498e c13d
00000070: 3db5 0d3e 4698 acbd 72ed a23c 7825 88be
00000080: 24b8 f93b 1b5b 093e 7410 a93d 71af a13e
00000090: b9bd a7bd 04d8 383d aa82 d0be b887 133e
000000a0: 6b4a 41be 96ef 163d 6397 d1bc 25e0 b1bc
000000b0: d3ec 12bd 85cd 43be 9dcc ecbe dfb1 32be
000000c0: 408b adbe 255e 2abe 6be6 333d a3b2 653d
000000d0: b6da b5be e90d 283e 3e8f 3cbd 5965 153e
000000e0: da4a 4f3d e956 2ebc d2a6 293e e8c1 80be
000000f0: 5b64 07be 6240 1f3d 0a16 d4bd 93a0 b2be
00000100: 82ac 5f3e 7e6f 20be e802 5abc 749e 743e
00000110: 460c 8fbe 0499 563e 15b2 4b3c 4014 f03c
00000120: 56d6 d33d f52f 5e3b 1124 f83a bf32 94be
00000130: b44c 1b3e 24a8 92bc d440 583c 351b 0e3e
00000140: c48c edbe d48b 13be a929 45be dadf 12be
00000150: 56b5 d13d ba7d 573e 50df 533e fb26 663b
00000160: 7bb3 7cbe d496 74be 54fb d1bd f9f3 5cbe
00000170: 5ec4 0bbe 4c9c cd3d 488f 05bd e22c 273d
00000180: f6f1 8ebe 4968 08be 1c24 623d 9587 553e
00000190: 148c f8bd 7608 fb3d caae 93be b934 46be
000001a0: f605 503e 1ad0 f4bd 3578 243d 0401 0b3c
000001b0: 6dae a6be acb8 5d3e 7cc6 c2bd c6f6 40bd
000001c0: 3413 febd 7609 7ebd 4c28 06be dec0 d73d
000001d0: cb43 71be 7ffc e0bd e519 10bd cc0e e23d
000001e0: 35f1 4c3e 96ae b1bc 489c afbe f02a e63d
000001f0: 2a1f cd3d 716d c4be 7767 83be 4e22 193e
00000200: 3dc2 893e 563d 433c 4024 2dbe 1e22 aabe
00000210: 3cff 59be 30b2 27be c380 483d 1db5 0e3e
00000220: 6b7d 7cbd feba 5abe 1d34 c7bd 031b dcbd
00000230: 2511 f73d 0186 1d3e a500 1e3e a3f4 b0bc
00000240: eb3a ad3e 3eab d43d fc03 a2bb 11c9 dd3d
00000250: 0a07 07be 85d0 3cbe d128 8f3d c7bb 99bc
00000260: 0cf5 91be 920b b33d e68c 153e 4e55 76bd
00000270: 49c7 08be b3cd 843e a81d 05bd c919 e13c
00000280: 1b37 42bd 9f60 52be 624d dc3d 5386 643d
00000290: 075f 35be 8941 8dbd fa53 783e 7b84 fa3d
000002a0: 4754 1fbe 9ebb fcbd 6d6d a73c 4935 1abe
000002b0: ac07 53bd cf2c 91bd b4ba 03be b86e a13d
000002c0: 40ee 11be 4032 9fbe 5c4c 4f3e be84 973e
000002d0: 3817 863e d7f8 86be 48b6 0bbe 2301 a5be
000002e0: c91d a13e ec8f 0cbe d135 00bf 0b56 213e
000002f0: 5be5 11be 3949 aebe 4ff6 9d3e 7216 ed3b
00000300: 5698 2c3d d653 953d 1db9 b2bd 48f0 45be
00000310: 3970 2cbd b1b4 1a3e 33e2 5dbd 6bfd dbbd
00000320: f22d ce3d 3e2d 8fbd 803b 25be 1417 42be
00000330: 419e 513e acd0 093e 277a 9b3e 5184 bc3b
00000340: 13c2 343e 1785 803e 7a64 203e 0b80 51be
00000350: 3f7c 983d aa6a 57be a9eb 7e3e 59b7 fa3d
00000360: 01c5 c0bd b8e3 013e e1cf 3a3e d498 b93d
00000370: 15ff c63d 6a2c b33d 847e b0be d7e9 babd
00000380: 7048 2fbe 1a19 9b3d acee b7bd ea59 4c3d
00000390: 3ed1 48bd 8ad4 9cbc 7761 e9bb fb20 bfbe
000003a0: 68d7 09be a469 893e 463b 0bbd 1a1b 283e
000003b0: 5ddd 1e3e 17df 13be 4e1d 8ebe 286c 423e
000003c0: 6ff5 073c 8b47 0cbe 438c cdbe ae64 51be
000003d0: 7a0c b2be 6e45 08bc f2a8 80be 785c 13be
000003e0: 25be 23be 00ae a03c 4d49 a93c 3d3d 5c3e
000003f0: 9efb 2c3b 97a2 0d3e f728 d6bd bb52 fd3d

fc2.bias f4 [128]
0.045170605 -0.0016422401 0.0029590034 0.03632799 0.030029377 -0.065660685 -0.019848773 -0.009729588
0.022380367 -0.060574632 -0.0094785355 0.027048606 -0.01627532 0.030964661 0.02240495 -0.05790546
-0.046925493 -0.013994395 -0.030861223 0.008940169 -0.012348163 -0.05955741 -0.02428988 -0.06314459
0.023779834 0.030712131 -0.02780044 -0.0502582 0.027035745 0.004438993 0.033345062 0.022085423
-0.0167804 -0.056804515 -0.019386822 0.03237839 0.013071708 0.070440255 0.021328073 -0.0377285
0.023268295 0.052178454 0.020446554 -0.027910016 0.014287236 0.03143018 0.038593307 0.057901997
0.052978132 0.028143918 0.063490316 -0.04018379 -0.023053594 -0.0014697706 -0.059910197 -0.0005082394
0.017350169 0.014523128 0.014769257 -0.047271695 0.023560148 0.011876003 0.04555774 0.018558126
0.056681104 0.0024753648 -0.021364953 0.060181916 -0.02352038 0.03795866 -0.050521404 -0.024238678
-0.0684866 -0.06672752 0.0116645675 -0.02659436 0.005699316 -0.025849044 0.019062888 0.010412269
-0.04381747 0.048298102 -0.038090233 0.028235063 0.027247034 0.032474138 0.017807845 0.008050748
0.044493396 -0.03453229 -0.03772498 0.042094324 -0.025730276 -0.06695526 0.017333103 0.016078757
0.04690997 -0.014721759 -0.0709443 -0.0046014423 0.02521104 0.04014052 0.051558055 0.033363625
-0.008582268 0.0075145536 -0.010064995 0.025257928 -0.049327433 -0.017662412 -0.036272082 0.037429933
-0.047623396 -0.04680641 -0.075236045 0.020074163 0.046802767 0.045892607 0.027149543 -0.02705123
0.03518557 0.009738894 0.007162976 -0.056914777 0.0051520653 -0.012989369 -0.03029931 0.0114440415
00000000: d004 393d 6f40 d7ba d7eb 413b a9cc 143d
00000010: 2b00 f63c 1c79 86bd e599 a2bc da68 1fbc
00000020: 0857 b73c 1b1d 78bd dc4b 1bbc 0a95 dd3c
00000030: d253 85bc 9aa9 fd3c 968a b73c 472e 6dbd
00000040: f234 40bd bf48 65bc add0 fcbc c979 123c
00000050: f34f 4abc 79f2 73bd 92fb c6bc f351 81bd
00000060: edcd c23c 0298 fb3c c0bd e3bc 8bdb 4dbd
00000070: 117a dd3c f974 913b d594 083d 7dec b43c
00000080: 0d77 89bc daab 68bd 1dd1 9ebc 349f 043d
00000090: b82a 563c fb42 903d 36b8 ae3c 3389 1abd
000000a0: 279d be3c 13b9 553d 887f a73c 8ca3 e4bc
000000b0: 0315 6a3c efbc 003d 0414 1e3d a52a 6d3d
000000c0: 99ff 583d 138e e63c 3607 823d c297 24bd
000000d0: e4da bcbc 51a5 c0ba 6564 75bd 5e3b 05ba
000000e0: f121 8e3c 6af2 6d3c c1fa 713c f79f 41bd
000000f0: 3601 c13c 9193 423c c19a 3a3d 3607 983c
00000100: 722a 683d bb39 223b 8e05 afbc 5081 763d
00000110: d0ad c0bc 8a7a 1b3d 88ef 4ebd 3190 c6bc
00000120: b442 8cbd 70a8 88bd be1c 3f3c 6adc d9bc
00000130: 54c1 ba3b 60c1 d3bc c629 9c3c 3998 2a3c
00000140: f379 33bd 3bd4 453d 8104 1cbd 384d e73c
00000150: 2c35 df3c 9a03 053d c2e1 913c 49e7 033c
00000160: b53e 363d bb71 0dbd 8285 1abd 196b 2c3d
00000170: 4dc8 d2bc d71f 89bd 27fe 8d3c 99b7 833c
00000180: ab24 403d 8833 71bc 3f4b 91bd b2c7 96bb
00000190: 6287 ce3c 636a 243d 8a2e 533d 4ca8 083d
000001a0: a49c 0cbc a53c f63b a6e7 24bc b7e9 ce3c
000001b0: 900b 4abd c3b0 90bc 0992 14bd 2150 193d
000001c0: c010 43bd 14b8 3fbd 5b15 9abd 9272 a43c
000001d0: 42b4 3f3d e3f9 3b3d b868 de3c 8b9a ddbc
000001e0: bf1e 103d e28f 1f3c 66b7 ea3b 781f 69bd
000001f0: a8d2 a83b 5dd1 54bc 4236 f8bc ca7f 3b3c

bn2.weight f4 [128]
0.8279016 0.99035895 0.9233406 0.9341352 0.9362305 0.86478716 0.9066608 1.0214622
0.89091396 0.93958956 0.88956845 0.9822174 0.9881301 0.8276264 0.88926625 0.87222075
0.7970583 0.948566 1.0136077 0.9710565 0.96804875 0.8270626 0.8838773 0.97481996
0.881374 0.98271585 1.019234 0.91239166 0.92795813 0.96407324 0.9258072 1.0116229
0.8767065 0.81155413 0.88094604 0.847323 1.1769388 0.844119 1.0921528 0.885956
0.93414265 0.9387525 0.9931964 0.9412856 0.93707633 0.8799907 0.82940614 0.97410226
0.93815106 0.8409544 0.794836 0.9643986 0.9039178 0.8484149 0.8785691 0.94001114
0.9282768 0.7913453 0.9899515 0.91804963 0.9417731 1.0271457 0.92842185 0.8253043
0.97893935 0.9141317 0.93547416 0.9878049 0.8948603 0.7684135 0.90319014 0.93375635
0.83601457 0.970854 1.0586665 0.9706204 0.9282689 1.0159743 0.9569157 0.91360646
0.8572742 0.9638963 0.8320401 0.93858993 0.8961231 0.998709 0.7965874 0.9223633
0.98600054 1.030312 0.973849 0.96069545 0.96677303 1.0191522 0.8809472 0.90261376
0.9953035 0.91993034 0.89549226 1.0922955 0.91656786 0.98293775 0.9329515 0.8234428
0.97079057 0.86748254 0.89555544 0.91525716 0.9539386 0.8915911 0.90896094 0.8584661
0.93669736 0.9601119 0.7546097 0.875483 1.0279416 0.8745516 0.80922973 0.86478555
0.91658735 0.87433124 0.8339603 1.0095423 0.8497707 0.74790984 0.88710517 0.9195964
00000000: 5cf1 533f 2a88 7d3f 0d60 6c3f 7c23 6f3f
00000010: cdac 6f3f b162 5d3f ec1a 683f 46bf 823f
00000020: f012 643f f188 703f c2ba 633f 9972 7b3f
00000030: 18f6 7c3f 53df 533f f4a6 633f dc49 5f3f
00000040: 030c 4c3f 39d5 723f e6bd 813f 2997 783f
00000050: 0bd2 773f 60ba 533f c845 623f cd8d 793f
00000060: baa1 613f 4493 7b3f 4276 823f 8092 693f
00000070: aa8e 6d3f 81cd 763f b301 6d3f dc7c 813f
00000080: d66f 603f 03c2 4f3f ae85 613f 29ea 583f
00000090: eea5 963f 2f18 583f aacb 8b3f 03ce 623f
000000a0: f923 6f3f 1552 703f 1f42 7e3f 18f8 703f
000000b0: 3ce4 6f3f 1247 613f f653 543f c45e 793f
000000c0: ab2a 703f ca48 573f 5f7a 4b3f d4e2 763f
000000d0: 2867 673f b831 593f e8e9 603f 92a4 703f
000000e0: 8ca3 6d3f 9b95 4a3f 766d 7d3f 4d05 6b3f
000000f0: 0b18 713f 8379 833f 0ead 6d3f 2547 533f
00000100: c59b 7a3f 8904 6a3f 3c7b 6f3f c8e0 7c3f
00000110: 9115 653f bfb6 443f 7837 673f a80a 6f3f
00000120: 0d05 563f e389 783f 6282 873f 947a 783f
00000130: 08a3 6d3f 720b 823f 6df8 743f 1de2 693f
00000140: 5276 5b3f e8c1 763f 9400 553f 6e47 703f
00000150: 5368 653f 65ab 7f3f 27ed 4b3f 0020 6c3f
00000160: 886a 7c3f 43e1 833f 2b4e 793f 23f0 753f
00000170: 707e 773f 9473 823f c185 613f b211 673f
00000180: 36cc 7e3f 8e80 6b3f fb3e 653f 57d0 8b3f
00000190: 31a4 6a3f cfa1 7b3f e9d5 6e3f 26cd 523f
000001a0: bb85 783f 5613 5e3f 1f43 653f 4b4e 6a3f
000001b0: 5235 743f 503f 643f aab1 683f 6fc4 5b3f
000001c0: 66cb 6f3f e5c9 753f 1a2e 413f a71f 603f
000001d0: 9793 833f 9de2 5f3f ae29 4f3f 9662 5d3f
000001e0: 78a5 6a3f 2cd4 5f3f 6c7e 553f af38 813f
000001f0: 938a 593f 0577 3f3f 5319 633f ab6a 6b3f
